model.pt (torch, 16495 bytes, 18 tensors)

linear.weight f4 [8, 2]
0	0x3e3c85de	0.18410441
1	0xbea6b791	-0.32561925
2	0xbe176978	-0.14786327
3	0x3f159c9b	0.58442086
4	0x3e61d235	0.22052844
5	0x3d6297ea	0.055320658
6	0x3def2ed3	0.11678853
7	0xbf063690	-0.52427006
8	0xbd1adf10	-0.037810385
9	0xbee81b85	-0.45333496
10	0x3ec0549f	0.3756456
11	0xbc4b2d96	-0.012401005
12	0x3edd6ea8	0.43248487
13	0x3f07b5d5	0.5301183
14	0xbf1723fb	-0.59039277
15	0x3efbc85e	0.49176306

linear.bias f4 [8]
0	0xbe3f3b5b	-0.18674986
1	0x3f0e8183	0.5566637
2	0xbed25011	-0.4107671
3	0x3be02b6b	0.0068411133
4	0x3e63c7e0	0.22244215
5	0xbd22dee3	-0.039763343
6	0xbede791d	-0.43451777
7	0x3eb2bb76	0.34908646

l2.weight f4 [64, 8]
0	0xbe9566d6	-0.2918002
1	0xbe9ea7c7	-0.3098738
2	0xbc630700	-0.013856649
3	0xbc618520	-0.01376465
4	0x3e10ade6	0.14128837
5	0xbe115905	-0.14194115
6	0xbe0c0122	-0.13672307
7	0xbe12e2a2	-0.14344266
8	0x3e7384e1	0.23781158
9	0x3e9a87c5	0.3018171
10	0x3e7718c7	0.24130546
11	0x3e5820fc	0.21106333
12	0xbcd50c90	-0.026006967
13	0x3e7b5371	0.24543549
14	0xbea72320	-0.32643986
15	0xbe913c7f	-0.28366467
16	0xbe987c98	-0.29782557
17	0x3d110400	0.035404205
18	0x3c9acefc	0.018897526
19	0xbe49bd40	-0.197011
20	0xbe07edfc	-0.13274378
21	0x3e983496	0.2972762
22	0x3e640b6c	0.22269982
23	0x3e930d27	0.28720972
24	0x3e919a25	0.28437915
25	0x3e121094	0.14264137
26	0x3dd58f3e	0.10427712
27	0xbd5110c3	-0.051041376
28	0x3d61db40	0.055140734
29	0xbd8eef5a	-0.069792464
30	0x3e6d8a3d	0.23197265
31	0xbdc53560	-0.09629321
32	0xbe3befdb	-0.18353216
33	0x3dc2f6a4	0.09519699
34	0xbe5de7cf	-0.21670459
35	0x3d9bb340	0.076025486
36	0x3c001a60	0.007818788
37	0xbe219373	-0.15778904
38	0x3e36ddbe	0.17858025
39	0x3d9e942c	0.07743105
40	0x3ce71fb0	0.028213352
41	0xbe97ae85	-0.29625335
42	0x3e150d6a	0.14555898
43	0x3d9e313c	0.077242345
44	0xbdb0ae94	-0.08627048
45	0xbe1c3272	-0.15253618
46	0xbeb2cf5c	-0.34923828
47	0x3e8e1219	0.27748182
48	0xbe9b9b06	-0.3039171
49	0x3e13fd64	0.1445213
50	0x3ea0532d	0.31313458
51	0x3cdbf362	0.026849452
52	0xbe0f9f3e	-0.1402559
53	0x3e23b4ca	0.15986934
54	0x3cb38129	0.021912174
55	0x3db8e1a4	0.090274125
56	0xbdfb2180	-0.12262249
57	0x3e22d21e	0.15900466
58	0xbe3d6d17	-0.18498646
59	0x3e899a08	0.2687533
60	0xbe32ede7	-0.17473565
61	0x3e975680	0.29558182
62	0x3e8a0681	0.26958087
63	0x3e9a3571	0.30118898
64	0x3dd1092e	0.10206829
65	0xbe9058e3	-0.28192815
66	0xbe2ae261	-0.16687919
67	0x3e3e44e9	0.18580975
68	0x3dce6350	0.10077536
69	0x3e438b9b	0.19096224
70	0x3e664357	0.22486626
71	0xbde2d582	-0.1107588
72	0xbe7878a6	-0.24264774
73	0x3e90222d	0.28151074
74	0x3e8d256b	0.2756761
75	0x3e736ada	0.2377123
76	0x3e49b30a	0.19697204
77	0x3d29ff78	0.0415034
78	0xbe92845a	-0.286166
79	0xbeb26793	-0.34844646
80	0xbe4b3ba0	-0.19846964
81	0x3ea3356f	0.31876704
82	0x3e3c159a	0.18367615
83	0xbd1be0a8	-0.038056046
84	0x3e6bfffe	0.23046872
85	0xbd601908	-0.05471137
86	0xbe9c2018	-0.30493236
87	0xbea9afd5	-0.33141962
88	0x3dba2f38	0.090910375
89	0xbe47bd9c	-0.19505924
90	0x3e0d90de	0.13824794
91	0x3e8e3ff5	0.2778317
92	0x3e2af7fe	0.16696164
93	0xbeb102ab	-0.34572348
94	0x3d2be9a8	0.04197088
95	0x3dd7b2d4	0.10532156
96	0x3e0e9b27	0.13926373
97	0x3d80340c	0.06259927
98	0x3dca8625	0.09888867
99	0xbeaf01e6	-0.34181136
100	0xbe12f708	-0.14352047
101	0x3e9c1e22	0.3049174
102	0xbe2e31a6	-0.17011127
103	0x3ea70271	0.3261905
104	0xbe846400	-0.25857544
105	0x3e85c005	0.26123062
106	0x3cf3d840	0.029766202
107	0x3e64fc1e	0.223618
108	0xbe5c597d	-0.21518512
109	0xbe0ddeaf	-0.13854478
110	0xbeaa5b97	-0.33273003
111	0xbd2f8550	-0.042851746
112	0xbdf866fe	-0.12129019
113	0x3e790eee	0.24322101
114	0x3e7019b2	0.23447302
115	0xbeb32606	-0.34989947
116	0x3e8549f7	0.26032993
117	0xbd933400	-0.071876526
118	0xbe9dd732	-0.30828243
119	0xbe5f767c	-0.21822542
120	0x3eabb440	0.33535957
121	0x3e536dd2	0.20647362
122	0xbe950617	-0.2910621
123	0xbc227e8d	-0.009917867
124	0xbe08470f	-0.13308357
125	0xbda01819	-0.07817096
126	0x3e74c2b3	0.23902397
127	0xbe7122be	-0.2354841
128	0xbd285588	-0.041097194
129	0x3d93306c	0.0718697
130	0x3eb263ff	0.34841916
131	0xbe21e683	-0.1581059
132	0x3df27744	0.11839154
133	0xbd480c10	-0.04883963
134	0xbeaa16e2	-0.33220583
135	0xbdbe235c	-0.09284088
136	0x3e3ad9f2	0.18247202
137	0x3db056a4	0.086102754
138	0xbe212754	-0.15737659
139	0x3da55724	0.080732614
140	0x3dc97eac	0.09838614
141	0xbe8009d8	-0.2500751
142	0xbe53291f	-0.20621155
143	0x3ea8a7ab	0.3294042
144	0xbe3810ec	-0.17975205
145	0xbd176d00	-0.036969185
146	0xbeb8d540	-0.36100197
147	0x3df58f3f	0.11990213
148	0xbe513ca1	-0.20433284
149	0x3dbceeb4	0.092252165
150	0x3e73a209	0.2379228
151	0xbd58b280	-0.052904606
152	0x3ea69f89	0.3254359
153	0xbc476080	-0.0121690035
154	0xbce56710	-0.028003246
155	0x3e873c99	0.2641342
156	0x3bc5aa40	0.0060322583
157	0xbe507575	-0.20357306
158	0xbdec2cb8	-0.11531967
159	0xbe1e8821	-0.15481617
160	0xbe5dcf60	-0.21661139
161	0x3df85e4c	0.12127361
162	0x3df41b99	0.11919326
163	0x3e776e7e	0.24163243
164	0x3eabbb75	0.33541456
165	0xbc4b4b63	-0.01240811
166	0x3e871c30	0.26388693
167	0x3e56ee82	0.20989421
168	0x3d027b54	0.031855896
169	0x3c41a1a0	0.01181832
170	0xbeba46c1	-0.36382106
171	0xbe7ad43d	-0.24495025
172	0xbe82ce1a	-0.25547868
173	0x3e9818a1	0.2970629
174	0x3e78c6c2	0.2429457
175	0xbeb0be2a	-0.34520084
176	0x3ce2312d	0.02761134
177	0xbe8631b7	-0.26209804
178	0xbe890f9a	-0.26769716
179	0x3e812dfa	0.2523039
180	0x3e809e37	0.25120708
181	0x3eb09cc9	0.34494618
182	0x3ddb2ef9	0.10702319
183	0xbea3c4a0	-0.3198595
184	0xbdd11384	-0.102088004
185	0xbe9600dc	-0.2929753
186	0xbea24a70	-0.31697416
187	0xbe63d458	-0.22248971
188	0xbd17e8c8	-0.037087232
189	0xbe89eb92	-0.26937538
190	0xbda00ca4	-0.07814911
191	0xbe77cfda	-0.24200383
192	0xbe7c6fba	-0.24651995
193	0xbe1f6059	-0.15564097
194	0x3de90aa0	0.1137898
195	0xbd108608	-0.035284072
196	0xbd965900	-0.07341194
197	0x3e95f48f	0.29288146
198	0xbea86c2e	-0.32895035
199	0xbe3cd429	-0.18440308
200	0xbe86e96c	-0.26349962
201	0x3ea26285	0.3171579
202	0xbd436a78	-0.04770896
203	0xbe2c30d3	-0.168155
204	0x3d15aa70	0.036539495
205	0x3eae81b7	0.3408334
206	0xbe993f1b	-0.29930958
207	0xbdcb1180	-0.09915447
208	0xbe760956	-0.24026999
209	0xbd635b80	-0.055507183
210	0xbeab6bda	-0.33480722
211	0x3e9da779	0.30791834
212	0xbea5fc4b	-0.32419047
213	0xbd96fcac	-0.07372412
214	0xbe930a51	-0.28718808
215	0x3e81141f	0.25210664
216	0xbe99372c	-0.29924905
217	0xbe9592c7	-0.29213545
218	0x3e1aa7d7	0.15103088
219	0xbe46ece9	-0.19426312
220	0xbd851604	-0.0649834
221	0xbe8e8703	-0.2783738
222	0x3e8c0143	0.27344713
223	0x3e752e22	0.2394338
224	0xbd9e6168	-0.077334225
225	0x3e22cd3e	0.15898606
226	0xba4b0400	-0.00077444315
227	0xbea501be	-0.32227892
228	0xbe29157c	-0.16512102
229	0x3b67be80	0.003536135
230	0xbdb32780	-0.087477684
231	0xbcb61970	-0.022228926
232	0xbe4bae5a	-0.19890729
233	0x3ea03b79	0.31295374
234	0x3eb0ab81	0.34505847
235	0xbd52c558	-0.051457733
236	0xbd9eb944	-0.0775018
237	0xbe3ef3e5	-0.18647726
238	0xbce84ec0	-0.028357863
239	0x3e95310b	0.2913898
240	0x3d29c708	0.041449577
241	0xbe5c23e4	-0.21498066
242	0x3de198c0	0.11015463
243	0xbddb8aa2	-0.107198015
244	0xbe82d5f2	-0.25553852
245	0xbe316260	-0.17322683
246	0xbe1c2b66	-0.1525093
247	0xbd898ff4	-0.0671691
248	0x3ea54b1e	0.32283872
249	0x3e339fb6	0.17541394
250	0x3ea7be6d	0.3276247
251	0xbd3fa645	-0.046789426
252	0xbe4235a9	-0.18965782
253	0x3e1ffd0e	0.15623876
254	0x3ea07d47	0.3134558
255	0xbea89242	-0.32924086

l2.bias f4 [64]
0	0xbe76c2d2	-0.24097756
1	0xbe6cb27b	-0.2311496
2	0x3e3afa3f	0.18259524
3	0x3e8c7f9f	0.27441117
4	0xbd8dfc44	-0.069328815
5	0x3c19c5c0	0.009385526
6	0x3e35d820	0.17758226
7	0x3e95b940	0.29242897
8	0x3e8612c0	0.2618618
9	0xbe1f6872	-0.15567186
10	0xbea3d7ec	-0.32000673
11	0xbd87c318	-0.06629008
12	0xbe9a8825	-0.30181995
13	0x3ea09343	0.31362352
14	0x3eaa51c9	0.33265522
15	0x3e812ad2	0.25227982
16	0xbeaa70ad	-0.3328909
17	0xbe0c31a3	-0.1369081
18	0x3dcc2c52	0.09969391
19	0x3dcaa92c	0.09895548
20	0x3d932518	0.071848094
21	0x3d52f13e	0.051499598
22	0xbd5ddda2	-0.054166444
23	0xbc522f20	-0.012828618
24	0x3dac514c	0.08413944
25	0x3e34ddce	0.17662737
26	0x3bcad240	0.0061896145
27	0x3e888640	0.26664925
28	0xbe8bfbdc	-0.2734059
29	0xbe9b7b52	-0.30367523
30	0x3e899d99	0.2687805
31	0x3d337e74	0.043821767
32	0x3e7c1218	0.24616277
33	0xbca2e8d0	-0.019886404
34	0x3db7a660	0.089672804
35	0xbe6c87d2	-0.23098686
36	0xbe19793a	-0.1498765
37	0x3dfaca70	0.12245643
38	0xbdf3475d	-0.11878846
39	0x3e2164c0	0.1576109
40	0xbe32e81a	-0.17471352
41	0xbdefb9e2	-0.11705376
42	0x3dc435f8	0.09580606
43	0x3e8c0e95	0.27354875
44	0xbe6e146e	-0.23249981
45	0x3e6010bd	0.21881385
46	0x3e721eea	0.23644605
47	0xbe1f2785	-0.15542419
48	0x3e3e72d2	0.18598488
49	0xbd390dda	-0.045179226
50	0x3e9099dd	0.28242388
51	0xbd62a1f0	-0.055330217
52	0xbe62419d	-0.22095342
53	0xbe7eb84e	-0.24874994
54	0xbdec1e78	-0.11529249
55	0x3e9fb3e1	0.31191924
56	0xbea160ac	-0.31519067
57	0xbc9c7047	-0.019096507
58	0xbeb7a0a3	-0.35864744
59	0x3e851d35	0.25998846
60	0xbc3f5060	-0.011676878
61	0xbe11eeb9	-0.14251222
62	0xbe5b9cb7	-0.214465
63	0x3eae5b09	0.3405383

l3.weight f4 [5, 64]
0	0xbdda58f0	-0.10661495
1	0x3d80d36e	0.06290327
2	0xbd6a0f61	-0.057143573
3	0x3d366a27	0.04453483
4	0xbd8a3494	-0.0674831
5	0x3d2e3ba4	0.042537346
6	0x3d9dd858	0.0770728
7	0xbdfc3b0d	-0.123159505
8	0x3c2e489f	0.010637431
9	0xbdde5c16	-0.10857408
10	0x3da9eeba	0.082974866
11	0x3dda31dc	0.10654041
12	0x3cba99a7	0.022778345
13	0xbd1de704	-0.03855039
14	0x3d4cc7e8	0.049995333
15	0xbd8a64b8	-0.06757492
16	0x3dd0a5ce	0.10187875
17	0xbd9d7e3a	-0.076900914
18	0xbde1f5d6	-0.110332176
19	0xbda887c0	-0.08229017
20	0x3d6aaa50	0.05729133
21	0xbbd4f871	-0.006499343
22	0xbd2e0e89	-0.04249433
23	0xbdd3c456	-0.103401825
24	0x3dffc322	0.124883905
25	0xbdf2ac8a	-0.118493155
26	0xbd6ef5e4	-0.05833997
27	0xbd998616	-0.07496278
28	0x3b6abd00	0.003581822
29	0x3d850544	0.06495145
30	0xbd8e311c	-0.069429606
31	0xbd07e8ad	-0.03318088
32	0xbda5f301	-0.0810299
33	0x3d910c66	0.07082443
34	0x3b5fd180	0.0034151971
35	0x3d0773ec	0.033069536
36	0x3ddfeeb2	0.109341994
37	0xbdedf4e8	-0.11618978
38	0xbdaf3d6b	-0.085566364
39	0xbc781a9f	-0.015143066
40	0xbe09a1ce	-0.1344063
41	0xbd04ca64	-0.032419577
42	0xbda3f332	-0.0800537
43	0x3d2aa445	0.041660566
44	0x3d31ed68	0.0434393
45	0xbdc1c876	-0.09462063
46	0x3c975310	0.018472224
47	0xbdc31a96	-0.09526555
48	0x3d8e29c2	0.069415584
49	0xbd9ccd1c	-0.07656309
50	0x3c4297bd	0.011876998
51	0x3da57a00	0.0807991
52	0x3df2fc59	0.11864538
53	0x3dd93d68	0.106074154
54	0x3cdcf7f0	0.026973695
55	0xbd6cd3e0	-0.057819247
56	0xbbefedc0	-0.007322043
57	0x3d7435c4	0.059621587
58	0x3aae0a42	0.0013278204
59	0xbd9a26da	-0.075269416
60	0x3cf8de08	0.03037931
61	0x3bd46eb0	0.0064829215
62	0x3d96eaae	0.0736898
63	0x3d9b53dc	0.07584354
64	0xbcd3c3d0	-0.025850207
65	0xbe027c99	-0.12742843
66	0x3d2e010e	0.042481475
67	0xbda510dd	-0.08059857
68	0xbd9035b6	-0.070414945
69	0x3d5c8268	0.053835303
70	0xbdad14cf	-0.084512345
71	0x3df1acbb	0.11800524
72	0x39ac65de	0.00032882293
73	0xbc820b80	-0.015874624
74	0x3d4e1f94	0.050323084
75	0xbde96d4e	-0.11397801
76	0x3d8d2ad0	0.068929315
77	0xbdfbbe3e	-0.12292145
78	0x3df45ede	0.11932157
79	0xbc9a474f	-0.01883283
80	0xbdf17144	-0.11789182
81	0x3df3dce8	0.11907369
82	0xbd6addf0	-0.057340562
83	0xbd8c0d12	-0.068384305
84	0x3d840163	0.06445577
85	0xbddceaac	-0.107869476
86	0x3de7bfc2	0.11315872
87	0xbb61e080	-0.0034466088
88	0xbdc6b386	-0.0970221
89	0xbdaf210c	-0.08551225
90	0xbdd083aa	-0.10181363
91	0x37d28287	2.5094732e-05
92	0xbd8fda62	-0.07024075
93	0x3d030a30	0.031992137
94	0xbcd481a0	-0.025940716
95	0xbc6f4c52	-0.0146055985
96	0xbddfa7d4	-0.109206825
97	0x38b2e800	8.530915e-05
98	0x3dda9f12	0.106748715
99	0xbddb5274	-0.10709086
100	0x3d982e7c	0.07430741
101	0xbbc53d80	-0.0060192943
102	0xbcbb1d85	-0.022841224
103	0xbca688d4	-0.020328917
104	0xbe076e66	-0.13225707
105	0x3cdd0538	0.026980028
106	0xbd3db238	-0.04631254
107	0xbd7e5fe1	-0.062103156
108	0x3ddd2cc6	0.107995555
109	0xbda8ad05	-0.08236126
110	0xbd902f6c	-0.07040295
111	0xbcab4c5e	-0.020910438
112	0xbdb263eb	-0.08710464
113	0xbd2bbdf1	-0.04192919
114	0x3d88f712	0.0668775
115	0x3dc62c18	0.09676379
116	0x3cfd5ef0	0.030929059
117	0xbdb6c804	-0.08924869
118	0xbc0bc370	-0.008530483
119	0xbcba4a18	-0.022740409
120	0xbd1c70f1	-0.038193647
121	0x3d847012	0.06466688
122	0xbd997f2b	-0.074949585
123	0x3d69ab00	0.057047844
124	0x3b34c2b0	0.0027581863
125	0x3d06fdec	0.032957003
126	0x3bd8d2ef	0.006616942
127	0x3da8e804	0.082473785
128	0x3d62d994	0.05538328
129	0x3d45702b	0.048202675
130	0x3dadebca	0.08492239
131	0x3d75aa47	0.059976842
132	0xbde75698	-0.11295813
133	0x3c7cf910	0.0154402405
134	0xbd83949f	-0.064248316
135	0x3d0cd845	0.03438594
136	0x3bdab506	0.0066744117
137	0xbdc2e77c	-0.095168084
138	0x3aef2000	0.001824379
139	0xbb5c8e00	-0.0033653975
140	0xbc981b1b	-0.018567612
141	0xbd592204	-0.053010955
142	0xbd47fc88	-0.048824817
143	0x3d46e1fc	0.04855536
144	0x3dc5f3f2	0.096656695
145	0x3d38801c	0.04504405
146	0xbd238486	-0.039921306
147	0xbb97f7c0	-0.0046376884
148	0xbd8886b0	-0.066663146
149	0xbcb38924	-0.02191598
150	0xbdbaa239	-0.09112973
151	0xbcab9ae0	-0.020947874
152	0xbbc27f40	-0.0059355795
153	0xbdac6bb6	-0.08418982
154	0xbcbe5af0	-0.023236722
155	0x3dc1ee67	0.094693
156	0x3d859d0e	0.065240964
157	0x3df9687c	0.12178132
158	0xbdce4bea	-0.10073073
159	0xbd9786f0	-0.07398784
160	0x3d389b62	0.04507006
161	0x3d985126	0.07437353
162	0x3b869fe0	0.004108414
163	0xbc028030	-0.007965133
164	0x3c06e3e0	0.008233041
165	0xbc947168	-0.018120483
166	0x3e03507c	0.12823671
167	0x3d624223	0.055238854
168	0x3dc3f8ed	0.09568963
169	0x3dbb6dec	0.09151825
170	0x3dcb2968	0.09920007
171	0xbdb781e1	-0.08960319
172	0x3c76e5e0	0.015069455
173	0xbc11fde3	-0.008910629
174	0xbc2af310	-0.010433927
175	0xbd984841	-0.07435656
176	0x3df4f485	0.11960701
177	0xbdb42391	-0.08795846
178	0xbd9c6870	-0.07637107
179	0x3d1746f8	0.036932915
180	0x3af46b32	0.0018647669
181	0x3ccaf0a0	0.024772942
182	0x3dad70fc	0.08468816
183	0x3d02a658	0.03189692
184	0x3df0cf02	0.117582336
185	0xbda375d3	-0.079814576
186	0x3d3c5849	0.045982633
187	0xbc7682b0	-0.015045807
188	0x3cd7711c	0.026299052
189	0xbd8639a4	-0.06553963
190	0x3da1fcfa	0.079095796
191	0xbbe27660	-0.006911084
192	0xbd834510	-0.06409657
193	0xbcb8b62e	-0.022547808
194	0x3d7cc186	0.061707996
195	0xbdf70656	-0.12061755
196	0x3dba0dca	0.09084661
197	0xbb9b27a0	-0.0047349483
198	0xbdcb7aba	-0.099355176
199	0xbd9b98db	-0.07597514
200	0x3d2e7895	0.042595465
201	0xbde23c14	-0.11046615
202	0x3db6a06a	0.08917315
203	0x3cc4c798	0.024020955
204	0xbdb26e93	-0.087124966
205	0xbdf7a4e6	-0.12091999
206	0x3ddea396	0.10871045
207	0x3d88da97	0.06682318
208	0xbd983f2a	-0.074339226
209	0xbc474540	-0.012162507
210	0xbbf2e25d	-0.0074122385
211	0xbc4804b0	-0.012208149
212	0xbd98ab19	-0.07454509
213	0x3d9b92f8	0.075963914
214	0xbd4f2f65	-0.05058231
215	0x3da0e108	0.07855421
216	0x3da76f06	0.08175473
217	0x3df69a50	0.120411515
218	0x3dcf78ec	0.10130486
219	0xbdc7bd95	-0.09752957
220	0x3de2c24c	0.110722154
221	0x3de6f94e	0.1127802
222	0x3d9b711a	0.07589932
223	0xbd23ae61	-0.039961223
224	0xbd186dd5	-0.03721412
225	0x3de61858	0.11235112
226	0x3c46e900	0.0121405125
227	0x3d6533f0	0.055957735
228	0x3cd03888	0.025417581
229	0xbc347b60	-0.011015743
230	0x3de1d641	0.11027194
231	0x3cc466a4	0.023974724
232	0xbc1fd8fc	-0.009756323
233	0xbd63701c	-0.055526838
234	0x3d009f60	0.03140199
235	0xbd3b4d65	-0.045728106
236	0x3d573af0	0.05254644
237	0xbdfb0f1c	-0.12258741
238	0xbdd99eb8	-0.10625976
239	0xbe006504	-0.12538534
240	0x3bc3a4b2	0.005970561
241	0xbbb40456	-0.005493681
242	0x3dcfa2f2	0.10138501
243	0xbdb911d6	-0.09036605
244	0x3d83bb58	0.06432217
245	0x3bbf0060	0.005828902
246	0xbcc578f0	-0.024105519
247	0xbcf6b428	-0.030115202
248	0xbe0035e7	-0.12520562
249	0x3d810f4f	0.06301748
250	0xbdf3e320	-0.11908555
251	0x3ddb3ed6	0.107053444
252	0xbd644614	-0.055730894
253	0xbdefbecb	-0.11706313
254	0x3d93468a	0.07191189
255	0x3d522bf0	0.051311433

l3.bias f4 [5]
0	0xbdb6771c	-0.08909437
1	0x3c4757e7	0.012166954
2	0x3d0ee863	0.03488959
3	0xbdc3585d	-0.09538338
4	0xbbb3d1f5	-0.0054876753

exp_avg f4 [8, 2]
0	0xbe0b7b9e	-0.13621375
1	0x3c29cba5	0.010363494
2	0x00000000	0.0
3	0x00000000	0.0
4	0x3cb0aec0	0.021567702
5	0xbc3144f3	-0.010819661
6	0xbde2ca5d	-0.11073754
7	0x3be62c5e	0.007024332
8	0x00000000	0.0
9	0x00000000	0.0
10	0xbb3b6dc0	-0.0028599352
11	0x3b7527be	0.0037407721
12	0x3ada7fa0	0.0016670115
13	0xba5321d0	-0.00080540497
14	0x00000000	0.0
15	0x00000000	0.0

exp_avg_sq f4 [8, 2]
0	0x3db77709	0.08958251
1	0x3845d6fe	4.7168687e-05
2	0x00000000	0.0
3	0x00000000	0.0
4	0x3e83729a	0.25673372
5	0x3945d203	0.0001886562
6	0x3d8942fd	0.0670223
7	0x381e87fd	3.7796784e-05
8	0x00000000	0.0
9	0x00000000	0.0
10	0x3d9d0a67	0.07668
11	0x37704449	1.4321014e-05
12	0x3daf891b	0.08571073
13	0x38a3360b	7.782512e-05
14	0x00000000	0.0
15	0x00000000	0.0

exp_avg f4 [8]
0	0xb8f95800	-0.000118896365
1	0x00000000	0.0
2	0x3ba4f940	0.0050345957
3	0x3a63c848	0.0008689207
4	0x00000000	0.0
5	0xbaef4bc2	-0.001825683
6	0x3b45edb8	0.0030201506
7	0x00000000	0.0

exp_avg_sq f4 [8]
0	0x38ea9460	0.000111856265
1	0x00000000	0.0
2	0x39df03e5	0.00042536776
3	0x38ab8975	8.179519e-05
4	0x00000000	0.0
5	0x38ad8f99	8.27603e-05
6	0x39025c50	0.00012432155
7	0x00000000	0.0

exp_avg f4 [64, 8]
0	0x00000000	0.0
1	0x00000000	0.0
2	0x00000000	0.0
3	0x00000000	0.0
4	0x00000000	0.0
5	0x00000000	0.0
6	0x00000000	0.0
7	0x00000000	0.0
8	0xbc6364f6	-0.013879051
9	0x00000000	0.0
10	0xbc77febd	-0.015136418
11	0xbc224b9e	-0.009905724
12	0x00000000	0.0
13	0xbcd71055	-0.026252905
14	0xbce801c0	-0.028321147
15	0x00000000	0.0
16	0xbce10722	-0.027469222
17	0x00000000	0.0
18	0xbce152ef	-0.027505366
19	0xbcafe946	-0.021473538
20	0x00000000	0.0
21	0xbd44ef02	-0.048079498
22	0xbd46653c	-0.04843639
23	0x00000000	0.0
24	0xbc455192	-0.012043374
25	0x00000000	0.0
26	0xbc863f82	-0.016387705
27	0xbbcc9ede	-0.0062445244
28	0x00000000	0.0
29	0xbccb313c	-0.02480375
30	0xbd01c805	-0.031684894
31	0x00000000	0.0
32	0x00000000	0.0
33	0x00000000	0.0
34	0x00000000	0.0
35	0x00000000	0.0
36	0x00000000	0.0
37	0x00000000	0.0
38	0x00000000	0.0
39	0x00000000	0.0
40	0x00000000	0.0
41	0x00000000	0.0
42	0x00000000	0.0
43	0x00000000	0.0
44	0x00000000	0.0
45	0x00000000	0.0
46	0x00000000	0.0
47	0x00000000	0.0
48	0x3cc59cea	0.024122674
49	0x00000000	0.0
50	0x3cbad584	0.02280689
51	0x3ca29aad	0.019849146
52	0x00000000	0.0
53	0x3d289687	0.04115918
54	0x3d214005	0.039367694
55	0x00000000	0.0
56	0xbc4b5764	-0.012410972
57	0x00000000	0.0
58	0xbc7f9c23	-0.015601191
59	0xbbf356a4	-0.0074261
60	0x00000000	0.0
61	0xbcbcebfa	-0.023061741
62	0xbce7194d	-0.028210307
63	0x00000000	0.0
64	0x3c3129d5	0.010813196
65	0x00000000	0.0
66	0x3c2c837d	0.010529396
67	0x3c0ecc78	0.008715741
68	0x00000000	0.0
69	0x3c9c83ad	0.019105757
70	0x3c99b0e1	0.0187611
71	0x00000000	0.0
72	0x00000000	0.0
73	0x00000000	0.0
74	0x00000000	0.0
75	0x00000000	0.0
76	0x00000000	0.0
77	0x00000000	0.0
78	0x00000000	0.0
79	0x00000000	0.0
80	0x00000000	0.0
81	0x00000000	0.0
82	0x00000000	0.0
83	0x00000000	0.0
84	0x00000000	0.0
85	0x00000000	0.0
86	0x00000000	0.0
87	0x00000000	0.0
88	0x00000000	0.0
89	0x00000000	0.0
90	0x00000000	0.0
91	0x00000000	0.0
92	0x00000000	0.0
93	0x00000000	0.0
94	0x00000000	0.0
95	0x00000000	0.0
96	0x3c61a7e4	0.013772938
97	0x00000000	0.0
98	0x3c44e81d	0.012018231
99	0x3c44c878	0.012010686
100	0x00000000	0.0
101	0x3cbf0601	0.023318293
102	0x3ca9a4bc	0.020708434
103	0x00000000	0.0
104	0x00000000	0.0
105	0x00000000	0.0
106	0x00000000	0.0
107	0x00000000	0.0
108	0x00000000	0.0
109	0x00000000	0.0
110	0x00000000	0.0
111	0x00000000	0.0
112	0x00000000	0.0
113	0x00000000	0.0
114	0x00000000	0.0
115	0x00000000	0.0
116	0x00000000	0.0
117	0x00000000	0.0
118	0x00000000	0.0
119	0x00000000	0.0
120	0xbcccf106	-0.025017273
121	0x00000000	0.0
122	0xbcc56acc	-0.024098776
123	0xbca5ba1c	-0.020230345
124	0x00000000	0.0
125	0xbd314440	-0.04327798
126	0xbd2c7e98	-0.042112917
127	0x00000000	0.0
128	0x00000000	0.0
129	0x00000000	0.0
130	0x00000000	0.0
131	0x00000000	0.0
132	0x00000000	0.0
133	0x00000000	0.0
134	0x00000000	0.0
135	0x00000000	0.0
136	0x00000000	0.0
137	0x00000000	0.0
138	0x00000000	0.0
139	0x00000000	0.0
140	0x00000000	0.0
141	0x00000000	0.0
142	0x00000000	0.0
143	0x00000000	0.0
144	0xbc30920e	-0.01077701
145	0x00000000	0.0
146	0xbc2345df	-0.009965389
147	0xbc13a4dd	-0.009011474
148	0x00000000	0.0
149	0xbc944f34	-0.018104173
150	0xbc8afceb	-0.016966304
151	0x00000000	0.0
152	0x00000000	0.0
153	0x00000000	0.0
154	0x00000000	0.0
155	0x00000000	0.0
156	0x00000000	0.0
157	0x00000000	0.0
158	0x00000000	0.0
159	0x00000000	0.0
160	0x3d0f39cd	0.034967232
161	0x00000000	0.0
162	0x3d0b3a64	0.033991233
163	0x3ce5bf7e	0.028045412
164	0x00000000	0.0
165	0x3d7af394	0.06126745
166	0x3d761d6e	0.06008666
167	0x00000000	0.0
168	0xbc8658f4	-0.016399838
169	0x00000000	0.0
170	0xbc4b2c0f	-0.012400641
171	0xbc80fc3b	-0.015745273
172	0x00000000	0.0
173	0xbcda07e8	-0.026615098
174	0xbca82fee	-0.020530667
175	0x00000000	0.0
176	0x3cd96d20	0.026541293
177	0x00000000	0.0
178	0x3cdd75fc	0.027033798
179	0x3ca6bff9	0.020355212
180	0x00000000	0.0
181	0x3d4490ee	0.04798978
182	0x3d48aace	0.048991017
183	0x00000000	0.0
184	0x00000000	0.0
185	0x00000000	0.0
186	0x00000000	0.0
187	0x00000000	0.0
188	0x00000000	0.0
189	0x00000000	0.0
190	0x00000000	0.0
191	0x00000000	0.0
192	0x00000000	0.0
193	0x00000000	0.0
194	0x00000000	0.0
195	0x00000000	0.0
196	0x00000000	0.0
197	0x00000000	0.0
198	0x00000000	0.0
199	0x00000000	0.0
200	0x00000000	0.0
201	0x00000000	0.0
202	0x00000000	0.0
203	0x00000000	0.0
204	0x00000000	0.0
205	0x00000000	0.0
206	0x00000000	0.0
207	0x00000000	0.0
208	0x00000000	0.0
209	0x00000000	0.0
210	0x00000000	0.0
211	0x00000000	0.0
212	0x00000000	0.0
213	0x00000000	0.0
214	0x00000000	0.0
215	0x00000000	0.0
216	0x30cfd932	1.5122963e-09
217	0x00000000	0.0
218	0x310169f4	1.8832198e-09
219	0x30701d70	8.7353325e-10
220	0x00000000	0.0
221	0x317e2471	3.698258e-09
222	0x319357c0	4.288239e-09
223	0x00000000	0.0
224	0x00000000	0.0
225	0x00000000	0.0
226	0x00000000	0.0
227	0x00000000	0.0
228	0x00000000	0.0
229	0x00000000	0.0
230	0x00000000	0.0
231	0x00000000	0.0
232	0x00000000	0.0
233	0x00000000	0.0
234	0x00000000	0.0
235	0x00000000	0.0
236	0x00000000	0.0
237	0x00000000	0.0
238	0x00000000	0.0
239	0x00000000	0.0
240	0x00000000	0.0
241	0x00000000	0.0
242	0x00000000	0.0
243	0x00000000	0.0
244	0x00000000	0.0
245	0x00000000	0.0
246	0x00000000	0.0
247	0x00000000	0.0
248	0x3c65dd25	0.014029776
249	0x00000000	0.0
250	0x3c6db701	0.014508964
251	0x3c2e1328	0.010624684
252	0x00000000	0.0
253	0x3ccf780e	0.025325801
254	0x3cd6a6db	0.02620261
255	0x00000000	0.0

exp_avg_sq f4 [64, 8]
0	0x00000000	0.0
1	0x00000000	0.0
2	0x00000000	0.0
3	0x00000000	0.0
4	0x00000000	0.0
5	0x00000000	0.0
6	0x00000000	0.0
7	0x00000000	0.0
8	0x3b38abd1	0.0028178582
9	0x00000000	0.0
10	0x3b860b08	0.0040906705
11	0x3a8fea18	0.00109798
12	0x00000000	0.0
13	0x3c5ac92c	0.013353627
14	0x3c8f9b69	0.01753016
15	0x00000000	0.0
16	0x3b9d0f97	0.004793118
17	0x00000000	0.0
18	0x3beb2d08	0.007176999
19	0x3ae75be1	0.0017651283
20	0x00000000	0.0
21	0x3cc49e9d	0.024001414
22	0x3d03596c	0.0320677
23	0x00000000	0.0
24	0x3bacb912	0.0052710855
25	0x00000000	0.0
26	0x3be959d2	0.007121303
27	0x3b16f385	0.0023033333
28	0x00000000	0.0
29	0x3cc315ba	0.023814071
30	0x3cf23e1b	0.02957063
31	0x00000000	0.0
32	0x00000000	0.0
33	0x00000000	0.0
34	0x00000000	0.0
35	0x00000000	0.0
36	0x00000000	0.0
37	0x00000000	0.0
38	0x00000000	0.0
39	0x00000000	0.0
40	0x00000000	0.0
41	0x00000000	0.0
42	0x00000000	0.0
43	0x00000000	0.0
44	0x00000000	0.0
45	0x00000000	0.0
46	0x00000000	0.0
47	0x00000000	0.0
48	0x3bb5b4c8	0.0055452324
49	0x00000000	0.0
50	0x3c07938d	0.008274925
51	0x3b069b60	0.0020539388
52	0x00000000	0.0
53	0x3ce41c70	0.027845591
54	0x3d17e8fa	0.03708742
55	0x00000000	0.0
56	0x3bf06751	0.007336535
57	0x00000000	0.0
58	0x3c31263f	0.010812341
59	0x3b367c88	0.0027845223
60	0x00000000	0.0
61	0x3d142ff1	0.036178533
62	0x3d43a131	0.047761146
63	0x00000000	0.0
64	0x3bb7d183	0.0056096925
65	0x00000000	0.0
66	0x3bfa5be1	0.0076403474
67	0x3b1ece25	0.0024231758
68	0x00000000	0.0
69	0x3ccf9f1a	0.02534442
70	0x3d01c02d	0.031677414
71	0x00000000	0.0
72	0x00000000	0.0
73	0x00000000	0.0
74	0x00000000	0.0
75	0x00000000	0.0
76	0x00000000	0.0
77	0x00000000	0.0
78	0x00000000	0.0
79	0x00000000	0.0
80	0x00000000	0.0
81	0x00000000	0.0
82	0x00000000	0.0
83	0x00000000	0.0
84	0x00000000	0.0
85	0x00000000	0.0
86	0x00000000	0.0
87	0x00000000	0.0
88	0x00000000	0.0
89	0x00000000	0.0
90	0x00000000	0.0
91	0x00000000	0.0
92	0x00000000	0.0
93	0x00000000	0.0
94	0x00000000	0.0
95	0x00000000	0.0
96	0x3b77f449	0.0037834814
97	0x00000000	0.0
98	0x3bae1461	0.005312488
99	0x3acb0d9d	0.0015491728
100	0x00000000	0.0
101	0x3c91e2b6	0.0178083
102	0x3cba89de	0.022770818
103	0x00000000	0.0
104	0x00000000	0.0
105	0x00000000	0.0
106	0x00000000	0.0
107	0x00000000	0.0
108	0x00000000	0.0
109	0x00000000	0.0
110	0x00000000	0.0
111	0x00000000	0.0
112	0x00000000	0.0
113	0x00000000	0.0
114	0x00000000	0.0
115	0x00000000	0.0
116	0x00000000	0.0
117	0x00000000	0.0
118	0x00000000	0.0
119	0x00000000	0.0
120	0x3b83e5ff	0.0040252204
121	0x00000000	0.0
122	0x3bc44231	0.005989336
123	0x3ac3f0ba	0.0014949061
124	0x00000000	0.0
125	0x3ca475c6	0.02007569
126	0x3cdadd0e	0.026716735
127	0x00000000	0.0
128	0x00000000	0.0
129	0x00000000	0.0
130	0x00000000	0.0
131	0x00000000	0.0
132	0x00000000	0.0
133	0x00000000	0.0
134	0x00000000	0.0
135	0x00000000	0.0
136	0x00000000	0.0
137	0x00000000	0.0
138	0x00000000	0.0
139	0x00000000	0.0
140	0x00000000	0.0
141	0x00000000	0.0
142	0x00000000	0.0
143	0x00000000	0.0
144	0x3ae370d7	0.0017352354
145	0x00000000	0.0
146	0x3b26d879	0.0025458618
147	0x3a2ce7f4	0.0006595843
148	0x00000000	0.0
149	0x3c0d072c	0.008607667
150	0x3c39d361	0.011341901
151	0x00000000	0.0
152	0x00000000	0.0
153	0x00000000	0.0
154	0x00000000	0.0
155	0x00000000	0.0
156	0x00000000	0.0
157	0x00000000	0.0
158	0x00000000	0.0
159	0x00000000	0.0
160	0x3bce3402	0.006292821
161	0x00000000	0.0
162	0x3c18139f	0.009282022
163	0x3b1c09ee	0.002380963
164	0x00000000	0.0
165	0x3cfcb036	0.030845743
166	0x3d273b68	0.04082814
167	0x00000000	0.0
168	0x3bd4bfc7	0.006492588
169	0x00000000	0.0
170	0x3c1812c4	0.009281818
171	0x3b29b477	0.002589492
172	0x00000000	0.0
173	0x3cfd9fa7	0.030959917
174	0x3d24339a	0.040088274
175	0x00000000	0.0
176	0x3ba837e3	0.0051336153
177	0x00000000	0.0
178	0x3bf21bdc	0.007388575
179	0x3b053541	0.0020325931
180	0x00000000	0.0
181	0x3cc4c178	0.024018034
182	0x3d00517d	0.031327713
183	0x00000000	0.0
184	0x00000000	0.0
185	0x00000000	0.0
186	0x00000000	0.0
187	0x00000000	0.0
188	0x00000000	0.0
189	0x00000000	0.0
190	0x00000000	0.0
191	0x00000000	0.0
192	0x00000000	0.0
193	0x00000000	0.0
194	0x00000000	0.0
195	0x00000000	0.0
196	0x00000000	0.0
197	0x00000000	0.0
198	0x00000000	0.0
199	0x00000000	0.0
200	0x00000000	0.0
201	0x00000000	0.0
202	0x00000000	0.0
203	0x00000000	0.0
204	0x00000000	0.0
205	0x00000000	0.0
206	0x00000000	0.0
207	0x00000000	0.0
208	0x00000000	0.0
209	0x00000000	0.0
210	0x00000000	0.0
211	0x00000000	0.0
212	0x00000000	0.0
213	0x00000000	0.0
214	0x00000000	0.0
215	0x00000000	0.0
216	0x36399702	2.7655046e-06
217	0x00000000	0.0
218	0x368ef05c	4.2599113e-06
219	0x3578f8b3	9.2749104e-07
220	0x00000000	0.0
221	0x378b6577	1.661734e-05
222	0x37bb0bd7	2.229765e-05
223	0x00000000	0.0
224	0x00000000	0.0
225	0x00000000	0.0
226	0x00000000	0.0
227	0x00000000	0.0
228	0x00000000	0.0
229	0x00000000	0.0
230	0x00000000	0.0
231	0x00000000	0.0
232	0x00000000	0.0
233	0x00000000	0.0
234	0x00000000	0.0
235	0x00000000	0.0
236	0x00000000	0.0
237	0x00000000	0.0
238	0x00000000	0.0
239	0x00000000	0.0
240	0x00000000	0.0
241	0x00000000	0.0
242	0x00000000	0.0
243	0x00000000	0.0
244	0x00000000	0.0
245	0x00000000	0.0
246	0x00000000	0.0
247	0x00000000	0.0
248	0x3a7d4c02	0.000966251
249	0x00000000	0.0
250	0x3ab5daed	0.0013874449
251	0x39cab57a	0.00038663653
252	0x00000000	0.0
253	0x3b964800	0.00458622
254	0x3bc2e31c	0.0059474837
255	0x00000000	0.0

exp_avg f4 [64]
0	0x00000000	0.0
1	0xb8ab3ba0	-8.1650214e-05
2	0xb95002c0	-0.0001983745
3	0x3b969ced	0.0045963437
4	0x00000000	0.0
5	0x00000000	0.0
6	0x3aed8b95	0.0018123264
7	0x3bb0d736	0.005396749
8	0x3a9457fc	0.0011317725
9	0x00000000	0.0
10	0x00000000	0.0
11	0x00000000	0.0
12	0x3b4a3529	0.003085444
13	0x00000000	0.0
14	0x00000000	0.0
15	0xbad83664	-0.0016495702
16	0x00000000	0.0
17	0x00000000	0.0
18	0xba6276c4	-0.0008638913
19	0x00000000	0.0
20	0x3b35f695	0.0027765383
21	0xbbd53ae9	-0.006507267
22	0x3ab59790	0.0013854373
23	0x00000000	0.0
24	0x00000000	0.0
25	0x00000000	0.0
26	0x00000000	0.0
27	0x2ffe908c	4.6305038e-10
28	0x00000000	0.0
29	0x00000000	0.0
30	0x00000000	0.0
31	0x39409748	0.00018366904
32	0xba4d0060	-0.0007820185
33	0x00000000	0.0
34	0x00000000	0.0
35	0x00000000	0.0
36	0x00000000	0.0
37	0x00000000	0.0
38	0xb9e1a140	-0.00043035485
39	0xba1be216	-0.000594647
40	0xb9f829f0	-0.00047333492
41	0x00000000	0.0
42	0x00000000	0.0
43	0xbb6dc6f2	-0.003628191
44	0x00000000	0.0
45	0x3ad9c698	0.0016614972
46	0x00000000	0.0
47	0x3b599809	0.0033202192
48	0x3b4336c8	0.002978729
49	0xbb382caa	-0.0028102794
50	0xbb6a7c06	-0.003577949
51	0x00000000	0.0
52	0xbacb3c1e	-0.0015505587
53	0x00000000	0.0
54	0x00000000	0.0
55	0x00000000	0.0
56	0x3bf2bca2	0.0074077407
57	0x310d6854	2.0577504e-09
58	0x3b135d47	0.0022486018
59	0x00000000	0.0
60	0x3b6eb1f1	0.003642198
61	0x3b9a07b7	0.0047006267
62	0xb96e7058	-0.000227393
63	0x00000000	0.0

exp_avg_sq f4 [64]
0	0x00000000	0.0
1	0x38ee1ab1	0.00011353696
2	0x39952e9d	0.00028454224
3	0x398774a5	0.00025836113
4	0x00000000	0.0
5	0x00000000	0.0
6	0x39ba96fa	0.0003558917
7	0x39d616f8	0.00040834374
8	0x3982d3d5	0.0002495336
9	0x00000000	0.0
10	0x00000000	0.0
11	0x00000000	0.0
12	0x39594343	0.0002071979
13	0x00000000	0.0
14	0x00000000	0.0
15	0x397bd6a9	0.00024017192
16	0x00000000	0.0
17	0x00000000	0.0
18	0x38e729bf	0.00011022714
19	0x00000000	0.0
20	0x39ae8124	0.00033284083
21	0x39a14933	0.0003076285
22	0x393efa13	0.00018212972
23	0x00000000	0.0
24	0x00000000	0.0
25	0x00000000	0.0
26	0x00000000	0.0
27	0x3486ffd8	2.5145596e-07
28	0x00000000	0.0
29	0x00000000	0.0
30	0x00000000	0.0
31	0x382d2c81	4.128786e-05
32	0x39be37e4	0.00036281266
33	0x00000000	0.0
34	0x00000000	0.0
35	0x00000000	0.0
36	0x00000000	0.0
37	0x00000000	0.0
38	0x3a2700ff	0.0006370693
39	0x38c9757e	9.6063115e-05
40	0x39b534fc	0.00034562487
41	0x00000000	0.0
42	0x00000000	0.0
43	0x399a6ff4	0.0002945658
44	0x00000000	0.0
45	0x3985b0d2	0.00025499478
46	0x00000000	0.0
47	0x387d21c7	6.0351358e-05
48	0x39949ed4	0.00028347096
49	0x38904a88	6.8803376e-05
50	0x3995130b	0.00028433683
51	0x00000000	0.0
52	0x3932c824	0.00017049961
53	0x00000000	0.0
54	0x00000000	0.0
55	0x00000000	0.0
56	0x39df08c6	0.0004254041
57	0x378ee6c2	1.7035174e-05
58	0x391d0ce7	0.00014977493
59	0x00000000	0.0
60	0x38da1cd8	0.000104004226
61	0x398219de	0.00024814805
62	0x381f1411	3.7927242e-05
63	0x00000000	0.0

exp_avg f4 [5, 64]
0	0x00000000	0.0
1	0x3d9c11a5	0.07620553
2	0x3d912883	0.07087805
3	0x3dc47cb5	0.095940985
4	0x00000000	0.0
5	0x00000000	0.0
6	0x3d58f825	0.052971024
7	0x3e09af30	0.13445735
8	0x3dfad2c0	0.122472286
9	0x00000000	0.0
10	0x00000000	0.0
11	0x00000000	0.0
12	0x3cff1600	0.03113842
13	0x00000000	0.0
14	0x00000000	0.0
15	0x3d437314	0.04771717
16	0x00000000	0.0
17	0x00000000	0.0
18	0x3c9d3723	0.01919133
19	0x00000000	0.0
20	0x3da60e1e	0.081081614
21	0x3d80bbc3	0.06285813
22	0x3de832dd	0.113378264
23	0x00000000	0.0
24	0x00000000	0.0
25	0x00000000	0.0
26	0x00000000	0.0
27	0xafde418c	-4.042814e-10
28	0x00000000	0.0
29	0x00000000	0.0
30	0x00000000	0.0
31	0x3e5ee535	0.21767123
32	0x3e237da6	0.159659
33	0x00000000	0.0
34	0x00000000	0.0
35	0x00000000	0.0
36	0x00000000	0.0
37	0x00000000	0.0
38	0x3dc6b68e	0.09702788
39	0x3d17eaa3	0.037089
40	0x3d0f6f3c	0.03501819
41	0x00000000	0.0
42	0x00000000	0.0
43	0x3db32030	0.08746374
44	0x00000000	0.0
45	0x3cf58240	0.029969335
46	0x00000000	0.0
47	0x3cfeed22	0.031118933
48	0x3d17b193	0.037034582
49	0x3e35cd78	0.17754161
50	0x3d7861ba	0.060640074
51	0x00000000	0.0
52	0x3ddf5346	0.10904555
53	0x00000000	0.0
54	0x00000000	0.0
55	0x00000000	0.0
56	0x3d00c61b	0.031438928
57	0x310a68cf	2.014122e-09
58	0x3c3b32de	0.011425702
59	0x00000000	0.0
60	0x3e369b72	0.17832735
61	0x39bef600	0.00036422908
62	0x3e1dd144	0.1541186
63	0x00000000	0.0
64	0x00000000	0.0
65	0x3d80a472	0.062813655
66	0x3d81e3a0	0.06342244
67	0x3daea5fc	0.08527753
68	0x00000000	0.0
69	0x00000000	0.0
70	0x3d42fc10	0.047603667
71	0x3dfd5cf2	0.123712435
72	0x3de56db2	0.11202563
73	0x00000000	0.0
74	0x00000000	0.0
75	0x00000000	0.0
76	0x3ca75e08	0.02043058
77	0x00000000	0.0
78	0x00000000	0.0
79	0x3d3dfb96	0.04638251
80	0x00000000	0.0
81	0x00000000	0.0
82	0x3ca74780	0.020419836
83	0x00000000	0.0
84	0x3d8eb1e1	0.069675215
85	0x3d640228	0.05566612
86	0x3dccc1be	0.09997891
87	0x00000000	0.0
88	0x00000000	0.0
89	0x00000000	0.0
90	0x00000000	0.0
91	0x2e3b216d	4.2548565e-11
92	0x00000000	0.0
93	0x00000000	0.0
94	0x00000000	0.0
95	0x3e3c8b42	0.18412498
96	0x3e0ec13c	0.139409
97	0x00000000	0.0
98	0x00000000	0.0
99	0x00000000	0.0
100	0x00000000	0.0
101	0x00000000	0.0
102	0x3da40fcf	0.08010828
103	0x3d14cfb3	0.03633089
104	0x3cff2c6f	0.031149117
105	0x00000000	0.0
106	0x00000000	0.0
107	0x3da9b938	0.08287281
108	0x00000000	0.0
109	0x3ce7cbf9	0.028295504
110	0x00000000	0.0
111	0x3cb72091	0.022354396
112	0x3d091931	0.03347129
113	0x3e1bc3a8	0.15211356
114	0x3d6865a0	0.056737542
115	0x00000000	0.0
116	0x3db30a0c	0.08742151
117	0x00000000	0.0
118	0x00000000	0.0
119	0x00000000	0.0
120	0x3c8cf39c	0.017206006
121	0x3082da68	9.52082e-10
122	0x3b3f9506	0.0029233112
123	0x00000000	0.0
124	0x3e1cda4a	0.15317646
125	0xbba6b392	-0.0050873244
126	0x3dfd2b3f	0.12361764
127	0x00000000	0.0
128	0x00000000	0.0
129	0xbdb710c8	-0.08938748
130	0xbde5f112	-0.11227621
131	0xbe066584	-0.13124663
132	0x00000000	0.0
133	0x00000000	0.0
134	0xbd99f159	-0.075167365
135	0xbe3582f3	-0.17725734
136	0xbe23079c	-0.15920871
137	0x00000000	0.0
138	0x00000000	0.0
139	0x00000000	0.0
140	0xbd5d8a09	-0.05408672
141	0x00000000	0.0
142	0x00000000	0.0
143	0xbd75d698	-0.060019106
144	0x00000000	0.0
145	0x00000000	0.0
146	0xbce3423e	-0.027741548
147	0x00000000	0.0
148	0xbdeeedb3	-0.11666431
149	0xbdc82ef8	-0.097745836
150	0xbe188e8b	-0.14898126
151	0x00000000	0.0
152	0x00000000	0.0
153	0x00000000	0.0
154	0x00000000	0.0
155	0x2e9c6b6f	7.113143e-11
156	0x00000000	0.0
157	0x00000000	0.0
158	0x00000000	0.0
159	0xbe9f237e	-0.31081766
160	0xbe662039	-0.2247323
161	0x00000000	0.0
162	0x00000000	0.0
163	0x00000000	0.0
164	0x00000000	0.0
165	0x00000000	0.0
166	0xbe118b9e	-0.14213416
167	0xbd273206	-0.04081919
168	0xbcfb2bea	-0.030660588
169	0x00000000	0.0
170	0x00000000	0.0
171	0xbdde0baf	-0.10842072
172	0x00000000	0.0
173	0xbd1e8c34	-0.038707927
174	0x00000000	0.0
175	0xbd601334	-0.054705814
176	0xbd581801	-0.052757267
177	0xbe764149	-0.24048342
178	0xbdbd9ad5	-0.092580475
179	0x00000000	0.0
180	0xbe281372	-0.16413668
181	0x00000000	0.0
182	0x00000000	0.0
183	0x00000000	0.0
184	0xbd77b097	-0.060471144
185	0xb10bfcbb	-2.0370823e-09
186	0xbccb5536	-0.024820905
187	0x00000000	0.0
188	0xbe7b210c	-0.24524325
189	0xbcd076c3	-0.025447255
190	0xbe6fe69f	-0.23427819
191	0x00000000	0.0
192	0x00000000	0.0
193	0xbbcf5608	-0.0063273944
194	0x3c6ef150	0.014583901
195	0x3b8318d0	0.0040007606
196	0x00000000	0.0
197	0x00000000	0.0
198	0x3b8c23ec	0.004276743
199	0xbabcddc0	-0.0014409348
200	0xbb1bc0b0	-0.0023765974
201	0x00000000	0.0
202	0x00000000	0.0
203	0x00000000	0.0
204	0x3c55ffa8	0.0130614415
205	0x00000000	0.0
206	0x00000000	0.0
207	0xbb7b93a0	-0.0038387552
208	0x00000000	0.0
209	0x00000000	0.0
210	0x3a28cd40	0.0006439276
211	0x00000000	0.0
212	0x3c145214	0.009052772
213	0x3c3eacaa	0.011637846
214	0x3969eb00	0.00022308156
215	0x00000000	0.0
216	0x00000000	0.0
217	0x00000000	0.0
218	0x00000000	0.0
219	0x2f708f7d	2.187885e-10
220	0x00000000	0.0
221	0x00000000	0.0
222	0x00000000	0.0
223	0x3cbfe364	0.023423858
224	0x3c4cd170	0.012501106
225	0x00000000	0.0
226	0x00000000	0.0
227	0x00000000	0.0
228	0x00000000	0.0
229	0x00000000	0.0
230	0x3c67c6d8	0.014146529
231	0xbc0115c6	-0.007878726
232	0xbc45ecae	-0.012080355
233	0x00000000	0.0
234	0x00000000	0.0
235	0xbbf70590	-0.007538505
236	0x00000000	0.0
237	0xbac69030	-0.0015149172
238	0x00000000	0.0
239	0x3c55ce62	0.013049694
240	0x3b530d58	0.0032203998
241	0x3c013f40	0.007888615
242	0x3c121de0	0.008918256
243	0x00000000	0.0
244	0x3ca66fec	0.02031704
245	0x00000000	0.0
246	0x00000000	0.0
247	0x00000000	0.0
248	0x3c9ff42c	0.01952561
249	0x30654392	8.340574e-10
250	0x3c2b76a7	0.010465301
251	0x00000000	0.0
252	0x3c322fd0	0.010875657
253	0x3cb4222c	0.02198895
254	0x3cfb2630	0.030657858
255	0x00000000	0.0

exp_avg_sq f4 [5, 64]
0	0x00000000	0.0
1	0x3c958297	0.018250747
2	0x3e220ccc	0.15825194
3	0x3e1fbf44	0.15600306
4	0x00000000	0.0
5	0x00000000	0.0
6	0x3d8047d9	0.06263704
7	0x3e9ae49f	0.3025255
8	0x3e6ff007	0.23431407
9	0x00000000	0.0
10	0x00000000	0.0
11	0x00000000	0.0
12	0x3c1f6e18	0.009730838
13	0x00000000	0.0
14	0x00000000	0.0
15	0x3d3876a8	0.045035034
16	0x00000000	0.0
17	0x00000000	0.0
18	0x3c95e3a0	0.018297017
19	0x00000000	0.0
20	0x3de5c65e	0.11219476
21	0x3de5cfde	0.11221288
22	0x3e1f201c	0.15539593
23	0x00000000	0.0
24	0x00000000	0.0
25	0x00000000	0.0
26	0x00000000	0.0
27	0x34f4724d	4.5531706e-07
28	0x00000000	0.0
29	0x00000000	0.0
30	0x00000000	0.0
31	0x3f3179ad	0.6932629
32	0x3ed8d74d	0.4235176
33	0x00000000	0.0
34	0x00000000	0.0
35	0x00000000	0.0
36	0x00000000	0.0
37	0x00000000	0.0
38	0x3e064922	0.13113835
39	0x3c870633	0.016482448
40	0x397512b6	0.00023371991
41	0x00000000	0.0
42	0x00000000	0.0
43	0x3dfc66f0	0.12324321
44	0x00000000	0.0
45	0x3c8c56e9	0.017131286
46	0x00000000	0.0
47	0x3c905d9c	0.017622761
48	0x3d048438	0.032352656
49	0x3ebcaf37	0.36852428
50	0x3e024d56	0.12724814
51	0x00000000	0.0
52	0x3e2aaaff	0.16666792
53	0x00000000	0.0
54	0x00000000	0.0
55	0x00000000	0.0
56	0x3c127586	0.008939153
57	0x35ca62c5	1.5078919e-06
58	0x388a67b1	6.599667e-05
59	0x00000000	0.0
60	0x3ed913a4	0.42397797
61	0x3c2fe2f0	0.010735258
62	0x3eb5c019	0.3549812
63	0x00000000	0.0
64	0x00000000	0.0
65	0x3c79c1e3	0.01524398
66	0x3dccacbc	0.09993884
67	0x3dd33298	0.10312384
68	0x00000000	0.0
69	0x00000000	0.0
70	0x3d26b568	0.040700346
71	0x3e4b5466	0.19856414
72	0x3e1eb02f	0.15496896
73	0x00000000	0.0
74	0x00000000	0.0
75	0x00000000	0.0
76	0x3bee7d6b	0.0072781346
77	0x00000000	0.0
78	0x00000000	0.0
79	0x3ceb3d8a	0.028715868
80	0x00000000	0.0
81	0x00000000	0.0
82	0x3c3356cf	0.01094599
83	0x00000000	0.0
84	0x3d995446	0.07486777
85	0x3d9244b7	0.071420126
86	0x3dd95358	0.106116
87	0x00000000	0.0
88	0x00000000	0.0
89	0x00000000	0.0
90	0x00000000	0.0
91	0x31951d94	4.3398334e-09
92	0x00000000	0.0
93	0x00000000	0.0
94	0x00000000	0.0
95	0x3ef09063	0.46985158
96	0x3e900c3e	0.2813434
97	0x00000000	0.0
98	0x00000000	0.0
99	0x00000000	0.0
100	0x00000000	0.0
101	0x00000000	0.0
102	0x3db76663	0.089550756
103	0x3c330b13	0.010927933
104	0x39c1d003	0.0003696681
105	0x00000000	0.0
106	0x00000000	0.0
107	0x3da55d69	0.08074457
108	0x00000000	0.0
109	0x3c359c5c	0.011084642
110	0x00000000	0.0
111	0x3c45f29e	0.01208177
112	0x3caab3c1	0.020837666
113	0x3e821b94	0.25411665
114	0x3da2eb8d	0.07955084
115	0x00000000	0.0
116	0x3deb3ee8	0.11486608
117	0x00000000	0.0
118	0x00000000	0.0
119	0x00000000	0.0
120	0x3be2e21f	0.0069239284
121	0x3498dced	2.847295e-07
122	0x39024171	0.00012422145
123	0x00000000	0.0
124	0x3e93b2e0	0.28847408
125	0x3bd242b0	0.006416641
126	0x3e7859a6	0.24252948
127	0x00000000	0.0
128	0x00000000	0.0
129	0x3d41a945	0.04728057
130	0x3e768996	0.24075922
131	0x3e84adf8	0.25913978
132	0x00000000	0.0
133	0x00000000	0.0
134	0x3dd1c543	0.10242703
135	0x3f014b0d	0.50505143
136	0x3ecd4186	0.40089053
137	0x00000000	0.0
138	0x00000000	0.0
139	0x00000000	0.0
140	0x3c969b9b	0.018384745
141	0x00000000	0.0
142	0x00000000	0.0
143	0x3d945dd4	0.07244459
144	0x00000000	0.0
145	0x00000000	0.0
146	0x3cd92eff	0.026511667
147	0x00000000	0.0
148	0x3e42d86d	0.19027872
149	0x3e334b19	0.17509116
150	0x3e8f3cc4	0.27976048
151	0x00000000	0.0
152	0x00000000	0.0
153	0x00000000	0.0
154	0x00000000	0.0
155	0x3259c2bd	1.2675341e-08
156	0x00000000	0.0
157	0x00000000	0.0
158	0x00000000	0.0
159	0x3f9a586a	1.2058232
160	0x3f35e2e1	0.71049315
161	0x00000000	0.0
162	0x00000000	0.0
163	0x00000000	0.0
164	0x00000000	0.0
165	0x00000000	0.0
166	0x3e6aad0d	0.22917576
167	0x3cec56b5	0.028849939
168	0x3afbb548	0.0019203806
169	0x00000000	0.0
170	0x00000000	0.0
171	0x3e56a5e3	0.20961718
172	0x00000000	0.0
173	0x3ce04668	0.027377322
174	0x00000000	0.0
175	0x3cef15d4	0.029185213
176	0x3d525613	0.051351618
177	0x3f2b58b7	0.66932243
178	0x3e46cc56	0.19413885
179	0x00000000	0.0
180	0x3e97670c	0.29570806
181	0x00000000	0.0
182	0x00000000	0.0
183	0x00000000	0.0
184	0x3c88be9e	0.016692456
185	0x37204e17	9.554925e-06
186	0x39d9e64c	0.0004156105
187	0x00000000	0.0
188	0x3f3e4ea0	0.7433872
189	0x3c550668	0.013002016
190	0x3f1dea5d	0.61685735
191	0x00000000	0.0
192	0x00000000	0.0
193	0x3cde95f8	0.02717112
194	0x3e126677	0.142969
195	0x3e1da560	0.15395117
196	0x00000000	0.0
197	0x00000000	0.0
198	0x3d7d37a4	0.06182064
199	0x3e9ca054	0.3059107
200	0x3e7b3f9d	0.24535985
201	0x00000000	0.0
202	0x00000000	0.0
203	0x00000000	0.0
204	0x3c13cfef	0.009021743
205	0x00000000	0.0
206	0x00000000	0.0
207	0x3d3a6b1b	0.0455123
208	0x00000000	0.0
209	0x00000000	0.0
210	0x3c8c0d6a	0.01709624
211	0x00000000	0.0
212	0x3de4aa05	0.11165241
213	0x3dd7c0fd	0.105348565
214	0x3e2adb19	0.16685142
215	0x00000000	0.0
216	0x00000000	0.0
217	0x00000000	0.0
218	0x00000000	0.0
219	0x341869dc	1.4194615e-07
220	0x00000000	0.0
221	0x00000000	0.0
222	0x00000000	0.0
223	0x3f343b02	0.7040254
224	0x3ed70927	0.4199917
225	0x00000000	0.0
226	0x00000000	0.0
227	0x00000000	0.0
228	0x00000000	0.0
229	0x00000000	0.0
230	0x3e06f62e	0.13179848
231	0x3c979cd5	0.0185074
232	0x3a9f6ce5	0.001216319
233	0x00000000	0.0
234	0x00000000	0.0
235	0x3e060b13	0.13090162
236	0x00000000	0.0
237	0x3c87ea9f	0.016591368
238	0x00000000	0.0
239	0x3c7b262a	0.015328923
240	0x3cfc9194	0.030831136
241	0x3eca05a7	0.39457437
242	0x3df3605a	0.11883612
243	0x00000000	0.0
244	0x3e2cd9d5	0.16879971
245	0x00000000	0.0
246	0x00000000	0.0
247	0x00000000	0.0
248	0x3bee315b	0.007269067
249	0x371e7425	9.444576e-06
250	0x387d6799	6.0416383e-05
251	0x00000000	0.0
252	0x3edf18b5	0.43573537
253	0x3bd0cb55	0.0063718953
254	0x3eb40b40	0.35164833
255	0x00000000	0.0

exp_avg f4 [5]
0	0xb9364280	-0.00017381646
1	0x3caca7dd	0.021076137
2	0x3cf4e3d8	0.0298938
3	0xbd03b5b9	-0.032155726
4	0xbc98b3bb	-0.01864039

exp_avg_sq f4 [5]
0	0x3c4b3334	0.0124023445
1	0x3bb5ae53	0.0055444627
2	0x3c61c617	0.013780138
3	0x3c59f817	0.013303778
4	0x3c4ec9d8	0.0126213655
